data.pth (torch, 10711 bytes, 6 tensors)

l1.weight f4 [8, 138]
00000000: 74ec d5be 47a6 c3be e406 883e 493f 6a3f
00000010: 967e 11bf 3999 2a3e 6045 85be 5c5f cebe
00000020: 32e1 bbbe 62ff 98bf 9ef8 a13f 5a97 bfbd
00000030: 4d41 953f f1e8 713d c435 e33e bed1 3ebe
00000040: 8675 263f f792 e8be 9980 263f 0acb babf
00000050: 0013 833f 399a 833e ff11 0e3f 168f dd3e
00000060: 9011 6dbf 0981 983e d58a efbe 46b2 67bf
00000070: 0f32 cf3e 9ab0 9d3e 62a4 98bf 4b22 063d
00000080: 48be 80be 7f3c 433f e102 14bf 42c7 093f
00000090: 0526 123f 6863 f23e fc78 243f 1c1b b93e
000000a0: c941 b7be 8456 773e 3276 1b3f 72e6 1d3f
000000b0: 2a65 593f 78e5 33bf 4777 3f3f 230d 7c3d
000000c0: c8ea 0ebf 7611 67bf e178 85bd d967 143e
000000d0: 70c4 c8be 7143 d43e f6e8 aabe 7042 fb3e
000000e0: c426 31bf 6418 c4be e9bc 34bf a1d7 29bf
000000f0: 0720 adbe 2e4c 293e 20b5 c83f e47b 80be
00000100: 5670 12bf 2531 bb3e 09bc 5b3f 5aa7 263e
00000110: 5fa5 92be 910a 903f 9cd1 a53e adb3 043f
00000120: e030 b83e 67cd 323e e52f c83c 9d52 a83e
00000130: 2045 12bf 7b41 40bd f4d3 f93e 7e85 873e
00000140: 0325 403f 1c02 68bd cc65 d13f e202 47be
00000150: b706 513d 5cb3 033f 29a8 ac3f 605b a23e
00000160: 0e85 c93e 6c8d 9b3f 70f2 523f 1a64 2b3e
00000170: dd93 98bf 0e12 8abf d1f9 80be 077b 69be
00000180: b7b4 17bf b8d3 84be edd8 8e3e 96f8 8d3f
00000190: f454 6dbe 29ea 683d 2eca 8f3f 9856 3d3f
000001a0: a9b5 0340 580d 8c3e fcd8 98bf 9efd 913f
000001b0: cfb1 7abf 46e7 df3e b030 6cbb 86ee b23e
000001c0: fca5 c33e 11cd 463f 29b5 c83e 1b35 813e
000001d0: f8ba 053f a2a8 98bf 97f0 c7be 5ac3 6bbe
000001e0: aaa9 c1be 77d1 61be 3706 b1bd 49c0 8b3f
000001f0: 7b40 fe3d ee00 5e3f bbb9 cf3e f903 39be
00000200: 447a 683f 70ec 623e d33f 3f3f 02c0 743e
00000210: 8c8c a83e f8d6 01bf 3e77 943e 5459 9abf
00000220: 2b03 a3bd 911b 103f c6ef 393f 0d08 bdbe
00000230: d533 febb 5b48 133f 9278 953f 59b8 e43e
00000240: a1e3 c7bd 9bcb 6c3f fa46 243f 8b6b 61bf
00000250: 8aa1 ab3f c88d 4b3e 1fca bfbe 3aba 07bd
00000260: 2809 4d3d ddf8 8bbe e569 06be ae44 7b3f
00000270: d233 42bd 4920 61bf 433c a1bd 9bf3 9cbe
00000280: 931a d73f e093 f23e fbca 04bf 975c 253d
00000290: e321 22bf cadc 32bf 5612 a83f e12a 9c3f
000002a0: 5d0a 893f 1b7c bd3e 2ec0 7c3f c9fe dcbe
000002b0: 694e 7bbf 546d 08be c6ce 32bd c7fe 80bf
000002c0: 0841 12be d069 273e 9919 61bf dde9 44be
000002d0: 16fe 80bf 2091 4f3d e505 4d3f 3502 9dbd
000002e0: f2ac 51be ada0 463e dbde e4be b42a 81bf
000002f0: 7a93 19bf a4f7 31bf 119a 11bf 10e4 f8be
00000300: 0414 6f3f 6d91 e93f a627 c23f 8e91 1d3f
00000310: d7dc af3f 8ecb c03f 6bf3 6bbe 8144 f23e
00000320: 23bc ab3f 560d 27be fe0a 57be f1ed c43e
00000330: a8ac 443f e274 0e3e 6411 0b3e f0fa 643f
00000340: 6759 823e 6363 9cbd 2a75 893f 16e0 50bd
00000350: 6c02 263f 2244 bbbc 1204 04bf caa4 283e
00000360: d10a 6dbd b4c2 0c3e ebdc 673f f820 563f
00000370: 1362 083f 70f3 923f d2cf ffbe 76a3 b0bd
00000380: 3192 61bf 0aa5 cf3e 1830 39be ddff 833f
00000390: 45be 383f 28bf 01bd 977b 883f 0ce0 af3f
000003a0: b8b4 21bf dfa9 88be fc55 13bf 5643 2fbe
000003b0: bb32 b13c f88c 4bbf 6417 11bf 7143 433f
000003c0: 7264 4cbf be51 2cbe db2d f53e 9db6 cd3e
000003d0: c4e3 60bf e5a8 813f 4284 c93f 3d85 9a3f
000003e0: 6b6d 9b3f c767 6d3d 9791 04be 3d74 df3e
000003f0: 75c4 ab3e e1b8 8cbe 1964 2dbd 6444 c83f
-0.41781962 -0.38212797 0.26567757 0.91502815 -0.5683378 0.16660012 -0.2602949 -0.40307128
-0.36695248 -1.1952937 1.2653997 -0.0935504 1.1660553 0.05906004 0.44376957 -0.18634698
0.65023077 -0.45424625 0.65039974 -1.4593213 1.0240173 0.257036 0.5549621 0.43273228
-0.92604923 0.29785946 -0.46785608 -0.905064 0.4046788 0.307988 -1.1925166 0.032747548
-0.25145173 0.76264185 -0.5781689 0.5381967 0.57089263 0.47341466 0.6424711 0.36153495
-0.35792378 0.24154097 0.60727227 0.61679757 0.8491999 -0.70272017 0.7479138 0.061535966
-0.55827 -0.9026102 -0.065171964 0.1449274 -0.3921237 0.41457704 -0.3338086 0.49074125
-0.69199777 -0.3829986 -0.70600754 -0.6634465 -0.33813497 0.16532966 1.5680275 -0.2509452
-0.5720266 0.36560932 0.85833794 0.16274777 -0.28641793 1.1253225 0.32386482 0.51836663
0.3597479 0.17461167 0.0244369 0.3287553 -0.57136726 -0.046937447 0.4879452 0.26469034
0.75056475 -0.056642637 1.6359191 -0.19434693 0.051031794 0.51445556 1.3488818 0.3171034
0.39359325 1.2152534 0.8240118 0.16737404 -1.1920124 -1.078676 -0.25190595 -0.22800837
-0.59260124 -0.2594278 0.27899876 1.1091487 -0.23176938 0.056863938 1.1233575 0.73960257
2.0579627 0.2735393 -1.1941218 1.1405523 -0.97927564 0.43731135 -0.0036039762 0.34947604
0.38212574 0.77656657 0.39200714 0.2523583 0.52238417 -1.1926463 -0.39050743 -0.2302374
-0.37824756 -0.22052561 -0.086437635 1.0918056 0.124146424 0.8672017 0.4057139 -0.18067922
0.9081156 0.22160506 0.74706763 0.2390137 0.3291973 -0.5071864 0.28997225 -1.2058511
-0.079595886 0.56292063 0.7263149 -0.36920205 -0.0077576437 0.5753228 1.167742 0.44671896
-0.09760214 0.9249818 0.641708 -0.8805472 1.3408673 0.19878304 -0.37458894 -0.033136584
0.05005756 -0.27338305 -0.13126333 0.9815167 -0.0474127 -0.8793989 -0.07872822 -0.30654606
1.6804985 0.47378445 -0.51872224 0.040371504 -0.6333296 -0.6986815 1.3130596 1.2200586
1.0706288 0.37008747 0.9873074 -0.43163136 -0.9816652 -0.13322955 -0.043654226 -1.0077752
-0.1428262 0.16348958 -0.87929684 -0.19229837 -1.0077541 0.05067551 0.8008712 -0.076664366
-0.2047613 0.1939723 -0.44701275 -1.0091157 -0.59990656 -0.69518495 -0.5687571 -0.48611498
0.93389916 1.8247505 1.516835 0.61550224 1.373927 1.506212 -0.23042075 0.4731789
1.341679 -0.16313681 -0.21000287 0.38462785 0.7682595 0.13911775 0.13580853 0.894454
0.25458834 -0.07636144 1.0738881 -0.050994955 0.64847445 -0.022859637 -0.5156871 0.16469112
-0.057871643 0.13746148 0.9057147 0.83644056 0.5327465 1.1480541 -0.49963242 -0.08624928
-0.88113695 0.40555602 -0.18084753 1.0312458 0.7216533 -0.03167644 1.0662717 1.3740249
-0.6316638 -0.266921 -0.57553077 -0.1711553 0.021630635 -0.79511976 -0.56676316 0.7627478
-0.7984077 -0.16828057 0.47886547 0.40178385 -0.8784754 1.0129668 1.5743487 1.2071911
1.2142767 0.057960298 -0.12946163 0.4364337 0.33548322 -0.274848 -0.04233179 1.5645871

l1.bias f4 [8]
00000000: b1fe 973f 9e69 5f3f efa2 983f c030 8f3f
00000010: 63b7 823f 4b6f 563f 55c1 083f 5275 423f
1.1874601 0.87270534 1.1924723 1.1186752 1.0212215 0.8376357 0.5342 0.75960267

l2.weight f4 [8, 8]
00000000: b6d9 bc3f d9bf bc3f 43aa df3f 260e c3be
00000010: 8968 3440 be7c 1940 6a91 60bf 4681 1ec0
00000020: 5a1c 1c40 5784 6abf 85c7 2a40 2314 c1bf
00000030: 7eaa 5abf 0b0e 103f 69c7 0b40 e5a6 ef3f
00000040: 4482 563d 29ff 8bbf 4efa 72be 75fa 3040
00000050: ee80 6cbe fda6 5b3f 5787 da3f 44c5 973f
00000060: 27df 43be 9ac9 713e 17e1 adbe fdab 01be
00000070: a3aa 58be 409b ccbd 00e7 823c 38b1 24be
00000080: 2df2 0fc0 b997 473e 33e3 863f 5412 033e
00000090: 2a8d 2540 f8d5 3940 c51d 0e40 558b b03f
000000a0: f2a6 023f b8f8 f03f b7dd f13c f849 7bbf
000000b0: 3b12 723f 27cf 0abf e38a f5bd db21 2640
000000c0: 3536 0940 2146 1840 bad8 a63e 7fc3 afbe
000000d0: ce05 84bf 989f c93f 23c1 9ebe 147a 253e
000000e0: 9370 4fbd a43b 843f 40e9 1140 2569 1740
000000f0: 0d15 0f40 0ca0 bfbf 2b15 07c0 d145 5f3e
1.475394 1.4746047 1.7473835 -0.38096732 2.8188803 2.3982387 -0.87721884 -2.4766402
2.4392304 -0.91608185 2.6684277 -1.508427 -0.854164 0.5627143 2.184046 1.8722807
0.052370325 -1.0937244 -0.23728296 2.7652867 -0.23096058 0.8580168 1.7072552 1.1857076
-0.19128095 0.23612061 -0.33960792 -0.12663265 -0.21158843 -0.09990549 0.01597929 -0.16083229
-2.2491562 0.19491471 1.0538086 0.1279996 2.586741 2.9036846 2.220567 1.3792521
0.5103599 1.8825903 0.029524667 -0.9815974 0.9455907 -0.5422234 -0.11989381 2.5958164
2.1439335 2.3792803 0.32587224 -0.3432884 -1.0314271 1.5751829 -0.31006727 0.1615985
-0.05064447 1.0330701 2.2798615 2.3657925 2.2356598 -1.4970717 -2.110667 0.21803977

l2.bias f4 [8]
00000000: 6247 4b3f 62ec fd3e 183a 933f 9eba 4dbe
00000010: 6df8 ebbe 2479 c33e 245f dc3e 279a 933f
0.79405797 0.49594408 1.1502104 -0.2009072 -0.4608797 0.3817836 0.43041337 1.1531419

l3.weight f4 [40, 8]
00000000: 1f45 77be 0b90 63c0 5b17 9ebe 701b e8bd
00000010: 4311 88bf 549d 13bf 5515 5c3f 1f30 3d3f
00000020: 930d 92bd e95a 6ebe 0117 57bf c524 a2be
00000030: 07f7 d3bf 7a84 0abe 7113 7e3f bae8 d5bd
00000040: 4163 7f3e 5611 1abf 06de 01c0 d768 5bbe
00000050: 61bb c9bf 9c2a 733f 6d4a 13bd 1b68 143f
00000060: 71d0 053f 6ea2 eb3d 1eda 3cbf 94dd 8e3d
00000070: 9b7b b43d 324e 00bf 3193 d03e dc93 37c0
00000080: 8023 b5bf 862f 1bbf 970b 8dbd d81c b5bd
00000090: a775 f33e 511d ed3d ef0d 20bf 1c90 30be
000000a0: 79bc 16bf cfae ac3e 00ac 66bd e9de 983e
000000b0: fa24 8cbe ca38 fdbf 398a 30bf dc73 e8bd
000000c0: e103 d7bf c3f0 9a3e ffc1 50bd 0017 ac3d
000000d0: 5d7c df3e 5ac5 ee3e 13ba 743c dbed 38c0
000000e0: 0190 a63e 7683 83be 99af 85c0 1ecd aabe
000000f0: 0471 22be 7b12 343f eab8 843e 43c3 bc3d
00000100: 7dc9 43c0 5571 97bf 5cb9 073f 9f55 963e
00000110: 04d5 a93e 1d08 03c0 cce6 2dc0 f3cf aa3e
00000120: 390e 11c0 70bb f43e d2bc f3be baa6 b3be
00000130: 35cc 8b3e 3f02 c93e c041 17c0 cb64 bcbe
00000140: 8f6c 50c0 dcf0 5bbd dd9f c73e 69c2 b4be
00000150: 532c 1bbf b19f 00bf 3808 5abf dad1 163f
00000160: e577 07be 4236 bcbe b442 9ebd 5a16 5d3e
00000170: 256f 7ebf c105 bb3e 9ef8 44bf 9620 973e
00000180: d3a2 4fbf df8b 19c0 ef03 103b 319a 16be
00000190: 9e56 233f 4a6e 413e 818b 23c0 8715 3bbe
000001a0: ff78 5ebe 4e5e 693e 8758 09bf 3766 903e
000001b0: 7177 f03e 88f5 553e c4c2 11bf e357 a2bf
000001c0: 707b 86be 2d92 db3e 59de dfbf da5e 81be
000001d0: a958 d2be e1ae 6b3f c195 5a3f 7984 22c0
000001e0: 3490 083f a229 973e 8e70 8bc0 326a 87be
000001f0: 2c36 16c0 223b e03d 65e1 103f 6670 9d3e
00000200: 1a32 f7bf ae80 3fc0 19dc 263f c595 a4be
00000210: ca51 853e 5a9f 89bf 799c 0e3f 8e97 a4bd
00000220: ee12 8abe 90af 97bf b226 a73e 47f8 8ebe
00000230: 22eb ce3e b41d 2fc0 77c3 17c0 896c e3bc
00000240: 8f04 76be bd0b cc3e 05a1 013f f6ed 583e
00000250: 1ccb 2dc0 5258 86bf 2794 cabd 95d2 d3be
00000260: 00aa fdbf 817d 27c0 1207 693e 60d3 2b3c
00000270: 23f9 d4bd 4ee7 823e a211 cebf 68cf 3b3f
00000280: edf6 c3bf 6b8a 26be 0ec6 253f da86 9fbe
00000290: 43d5 c03e d1cd d3bf 90bf 63bf 4532 b4bf
000002a0: 7c65 36c0 b00d 183f e515 70bc 3834 023d
000002b0: 1b15 46bf 3532 e63e 7f6d 7c3e 63c0 55bf
000002c0: 1897 44bf 704a 2e3f 385e ecbf 9ea2 56be
000002d0: f1c3 3ac0 69b4 8a3f 9927 163e c1f0 803d
000002e0: b945 4a3e abca 01bd c5a3 0bc0 f05c e1bc
000002f0: 85a9 0c3f 8e01 153f c8c8 cd3e e705 a9bf
00000300: db89 513f 9b69 15c0 68a1 aebe c050 7e3c
00000310: 9f56 ab3e 6b37 43c0 a33b 34c0 d14d 853e
00000320: fa22 ea3e d071 2c3e 402a a1bf 68b8 85bd
00000330: c0c8 a7be 105a 04bf 4f78 d3bc 9302 0ebe
00000340: a758 0d3f c8ea 61bf a169 51be 799d 95be
00000350: 70e5 95bf 82e9 31c0 2006 1d3f 228a ca3d
00000360: b4a8 75be d4ec f5bf e795 693f a1d9 08be
00000370: 58c5 dabf 1a64 04c0 02b3 95bf 459d 4b3f
00000380: 69f9 e83e b4be 3ec0 2aac c0be 57ef 0cbe
00000390: 91d4 60be 104b 2dbe 7bb2 99bf a548 103f
000003a0: 5968 4d3f fbdb 3cc0 30b8 b2bf 115f 813e
000003b0: f63d 3ec0 c51f 203f c581 623f ca31 bb3d
000003c0: 8a04 043f 7cbb 5fc0 acc0 b3bf 8cd9 24be
000003d0: 206f b5bd f2a5 2c3f b7fe 92be 4773 183f
000003e0: 639d 9d3d c7b2 86bf 41e1 bb3c 8658 333e
000003f0: 514e b93d 9761 d4bf 2e5b 7ebd a4bb adbc
-0.24147461 -3.5556667 -0.30877194 -0.11333358 -1.0630268 -0.5766194 0.8597005 0.7390155
-0.07131495 -0.23276867 -0.84019476 -0.31668678 -1.6559762 -0.13527098 0.99248415 -0.1044478
0.24940206 -0.601827 -2.0291762 -0.21426712 -1.5760309 0.9498689 -0.03595965 0.5797135
0.5227118 0.115055904 -0.7377032 0.069758564 0.08812638 -0.50119317 0.40737298 -2.8683996
-1.4151459 -0.6061939 -0.06886976 -0.08843392 0.475507 0.11577857 -0.6252126 -0.17242473
-0.58881336 0.33727118 -0.056316376 0.29857567 -0.2737196 -1.9782956 -0.6896091 -0.113502234
-1.6798059 0.30261812 -0.05096626 0.084028244 0.4364957 0.46634942 0.014936942 -2.8895175
0.3253174 -0.25686234 -4.1776853 -0.33359617 -0.15863425 0.703407 0.25922328 0.09216931
-3.0591729 -1.1831461 0.5301721 0.293622 0.3317033 -2.0473702 -2.7172117 0.33361778
-2.266493 0.47799253 -0.47604996 -0.3508814 0.27304235 0.39259526 -2.363388 -0.3679565
-3.256626 -0.0536965 0.38989154 -0.35304573 -0.6061451 -0.5024367 -0.8516879 0.5891396
-0.1322933 -0.36760145 -0.07727566 0.21590558 -0.99388343 0.36527827 -0.7694186 0.2951705
-0.81107825 -2.399162 0.0021975 -0.14707257 0.6380404 0.18889728 -2.5553896 -0.18269931
-0.21725844 0.2278988 -0.53650707 0.28202984 0.46966127 0.20894444 -0.56937814 -1.2683071
-0.2626605 0.4288496 -1.748973 -0.25267678 -0.41083267 0.9206372 0.85384756 -2.5393355
0.53345037 0.2952395 -4.3574896 -0.26448208 -2.3470564 0.10948779 0.56593925 0.30749816
-1.9312165 -2.992229 0.6517959 -0.32145515 0.26038963 -1.0751755 0.5570751 -0.08036719
-0.26967567 -1.1850452 0.3264671 -0.27923796 0.40413767 -2.736188 -2.3713052 -0.027761715
-0.24025176 0.39852706 0.5063632 0.21184525 -2.7155218 -1.0495703 -0.09891539 -0.413716
-1.9817505 -2.6170352 0.22756603 0.010487407 -0.103990816 0.25567096 -1.6099131 0.7336335
-1.5309731 -0.1626374 0.6475533 -0.3115757 0.37662706 -1.6547185 -0.88964176 -1.4077841
-2.849944 0.59395885 -0.014653658 0.03178808 -0.77375954 0.4496018 0.24651144 -0.83496684
-0.7679305 0.6808233 -1.8466253 -0.20960471 -2.9182093 1.0836307 0.14663543 0.0629592
0.1975316 -0.03168742 -2.1818707 -0.027510136 0.54946166 0.582055 0.40192246 -1.3204926
0.81850976 -2.3345706 -0.34107518 0.015522182 0.33464524 -3.0502574 -2.81614 0.26035932
0.4572981 0.16840291 -1.2591019 -0.06529313 -0.32770348 -0.51699924 -0.025814204 -0.1386817
0.552134 -0.8824887 -0.2045045 -0.29221705 -1.1710644 -2.7798772 0.6133747 0.09889628
-0.23990136 -1.9212899 0.9124436 -0.13364269 -1.7091475 -2.0686097 -1.1695254 0.7953685
0.45502785 -2.9803896 -0.3763135 -0.13763176 -0.21956088 -0.16923165 -1.2007593 0.56360847
0.80237347 -2.9509265 -1.396246 0.25267842 -2.9725318 0.62548476 0.8847926 0.09140356
0.51569426 -3.4958181 -1.4043174 -0.16098613 -0.08859086 0.6744071 -0.28709957 0.595509
0.07696035 -1.0523309 0.022934558 0.17514238 0.09048141 -1.6592282 -0.062098674 -0.021207638

l3.bias f4 [40]
00000000: 95d8 a1be 8350 853e cd3e afbe 6d9f ca3d
00000010: b8ae 43be 1e74 b53b fcc5 fbbe d48b 90be
00000020: 1a31 ccbd a64c 7b3d 6e68 313e 8af2 9d3d
00000030: a2df 92be 807b 2fbf c9a7 7e3c b088 6cbe
00000040: 3e22 953d f7de b8be 7472 3e3e 1e80 883c
00000050: 7052 203d 31b5 b5bd d2b6 c13e 0df5 3dbf
00000060: 7b10 c23d 3d30 cfbe a345 23be 744a 683f
00000070: e9b0 02bd ab18 223f 7a46 92ba 2704 193e
00000080: cac4 dcbe 92c7 01bf 20c4 043f bbcc 23bf
00000090: 9bd5 363e 75d1 9bbe 721c 62be 030a 05bd
-0.3161055 0.26037988 -0.342276 0.09893689 -0.19109619 0.005537524 -0.49174488 -0.2823168
-0.09970303 0.061352395 0.17324993 0.07712276 -0.28686243 -0.6854782 0.015542933 -0.23099017
0.07281922 -0.3610761 0.18598348 0.016662654 0.03914112 -0.0887245 0.37834793 -0.7420204
0.094758 -0.4046649 -0.15944533 0.90738606 -0.031906996 0.6331889 -0.001115992 0.1494299
-0.43118888 -0.50695145 0.51861763 -0.6398427 0.17854922 -0.3043324 -0.22081164 -0.03248025
