data.pth (torch, 10903 bytes, 6 tensors)

l1.weight f4 [8, 140]
-0.40720654 0.7424478 0.42863142 1.1510338 0.38039804 -0.09259472 1.3112088 -0.3043534
0.5806531 -0.6870554 1.29289 -0.46967125 1.2949332 -0.11464128 -0.8704874 -0.7800538
0.9242376 0.6607768 0.31348833 0.50285965 0.89665395 0.5219387 0.39363348 -0.7605262
0.32764032 -0.20560405 0.64424455 -0.09846261 -1.143366 0.6493451 0.58974415 -0.318969
0.13510038 -0.41663617 0.7910206 0.9055625 0.9085003 0.37394676 -0.6207583 0.7446254
0.13486186 -0.35731483 -0.97674274 -0.68233067 -0.19070178 0.49388233 1.4652159 -0.75978047
0.025074663 0.62904316 0.77410275 -0.37655482 -0.07755695 0.85113704 -0.45719483 -0.34255344
-0.7598605 -0.7599543 -0.1394722 -0.7595073 -0.759429 -0.0028215076 0.15480728 -1.5553739
-0.776009 -0.3447729 -0.0893025 -0.9151276 1.2206233 0.24289899 -0.44338432 -0.06842761
-0.28443444 -0.14258072 -0.48630226 -0.3290042 0.67038286 0.7516525 -0.181059 0.42993796
0.017065326 0.41679502 -0.14941995 0.91308844 0.20693316 -0.070441715 0.57641983 -0.2868552
-0.62834626 0.13025613 0.44494316 0.81561834 0.34408554 0.47298414 -0.3312555 1.0932292
0.8812014 0.14473058 0.78521687 -0.77425355 0.55036247 0.96880674 -0.15462187 0.4792717
0.86650425 -0.76066333 0.77438354 0.0054547964 -0.65539706 0.73753273 -0.6277181 -0.26807007
-0.582417 0.468381 -1.4367156 0.9210859 -0.10179347 -0.87538415 0.43667 -0.7602619
-0.2152351 -0.090929545 -0.3873045 0.030092342 -0.116627365 -0.21631472 -0.082580544 -0.7596822
-1.231073 -1.0096003 -1.4135172 0.031721205 0.6493736 -0.046259444 -0.051640347 0.12246345
0.16894038 -0.7037038 -0.35138884 0.006661665 1.1532124 -0.13890807 -0.14754167 0.5772997
0.18689212 0.2224854 -0.7051763 0.15348804 -0.03502084 0.8015942 0.46652073 0.031126574
-0.28031638 0.036411192 1.0206944 0.8726413 -0.006355021 -0.30695486 -0.0031819001 -0.80125403
0.16217248 0.08009708 0.29703996 0.12139541 -0.09818216 -0.8595042 -0.10976775 0.41600356
2.2584722 0.07962585 -0.04840527 1.0772632 -0.030013693 0.5963819 1.3759032 1.4549017
0.013228579 -0.0009110901 -0.6723487 -0.468318 0.25895965 -1.1182878 1.1134746 -0.6906341
0.28398374 0.7877931 -0.87254506 0.99306697 0.1299792 1.4572966 -0.34498703 0.22037815
0.79687494 -0.662655 1.2923049 0.5855996 0.12151021 0.60941887 0.83553433 0.5886584
0.5309677 0.27051267 0.049877893 1.431593 0.47582814 0.39657342 0.10689597 0.7529943
1.172167 -0.7128866 0.9021387 1.0378801 0.9906243 0.05991301 0.46675357 0.6518525
-0.21374013 -0.63353 -0.050287284 -0.00010421581 0.38054395 -0.9289488 0.051000852 -0.79906344
0.34128603 0.29093903 -0.334407 0.9216782 -0.7127784 0.4141379 0.10061321 1.0538864
0.70277584 0.551147 1.0472652 -0.54575455 -0.5415843 1.1048489 -0.6588382 0.7958511
-0.16795805 -0.916454 -0.8675737 0.37871775 -0.80116445 1.02256 0.7060668 0.45659864
0.7946747 1.1200439 1.0303724 0.11231265 0.61336035 -0.071648456 1.3716958 0.75103843
00000000: 607d d0be 0f11 3e3f 9475 db3e 1355 933f
00000010: 88c3 c23e 4da2 bdbd b1d5 a73f 35d4 9bbe
00000020: aea5 143f dde2 2fbf 6b7d a53f c078 f0be
00000030: 5fc0 a53f 0cc9 eabd 43d8 5ebf 9bb1 47bf
00000040: d69a 6c3f ab28 293f 8b81 a03e 69bb 003f
00000050: 1d8b 653f c69d 053f 548a c93e d8b1 42bf
00000060: 79c0 a73e de89 52be 36ed 243f c4a6 c9bd
00000070: d159 92bf 7b3b 263f 79f9 163f e84f a3be
00000080: c157 0a3e 5651 d5be 5380 4a3f f2d2 673f
00000090: 7a93 683f f375 bf3e 04ea 1ebf c59f 3e3f
000000a0: 3a19 0a3e f8f1 b6be d00b 7abf 39ad 2ebf
000000b0: 5447 43be 25de fc3e 328c bb3f f980 42bf
000000c0: 6169 cd3c f908 213f 992b 463f cbcb c0be
000000d0: 2ed6 9ebd 1ee4 593f 7115 eabe 2a63 afbe
000000e0: 3886 42bf 5d8c 42bf cdd1 0ebe 126f 42bf
000000f0: f069 42bf 0be9 38bb cd85 1e3e 7e16 c7bf
00000100: 87a8 46bf 1386 b0be 3be4 b6bd cd45 6abf
00000110: 623d 9c3f 83ba 783e 4503 e3be c623 8cbd
00000120: 64a1 91be ae00 12be 9cfc f8be 3d73 a8be
00000130: 369e 2b3f 4c6c 403f 8867 39be d420 dc3e
00000140: 95cc 8b3c 2866 d53e 8b01 19be 2ac0 693f
00000150: 49e6 533e bf43 90bd 4090 133f afde 92be
00000160: 4ddb 20bf dd61 053e 97cf e33e 5dcc 503f
00000170: fb2b b03e fa2a f23e 529a a9be efee 8b3f
00000180: 6a96 613f 4134 143e f903 493f 7b35 46bf
00000190: 8ee4 0c3f b803 783f 3255 1ebe 1a63 f53e
000001a0: 39d3 5d3f d5ba 42bf 003e 463f 26be b23b
000001b0: 1ac8 27bf f2ce 3c3f 22b2 20bf 7b40 89be
000001c0: 4819 15bf a2cf ef3e 4ce6 b7bf 49cc 6b3f
000001d0: 1879 d0bd 2d19 60bf 3693 df3e 86a0 42bf
000001e0: 9766 5cbe 4539 babd c74c c6be 3784 f63c
000001f0: 54da eebd 9b81 5dbe fd1f a9bd 887a 42bf
00000200: cd93 9dbf 953a 81bf 22ee b4bf 18ee 013d
00000210: 593d 263f 8b7a 3dbd d484 53bd 1ece fa3d
00000220: b5fe 2c3e ef25 34bf 3de9 b3be 194a da3b
00000230: 779c 933f eb3d 0ebe 2a15 17be eac9 133f
00000240: a660 3f3e 36d3 633e 6f86 34bf f82b 1d3e
00000250: 0372 0fbd 4735 4d3f cedb ee3e 28fd fe3c
00000260: a185 8fbe e723 153d 1da6 823f 6c65 5f3f
00000270: c83d d0bb 3029 9dbe 6d87 50bb fc1e 4dbf
00000280: 8b10 263e f009 a43d 9f15 983e 289e f83d
00000290: ba13 c9bd 7808 5cbf eacd e0bd 6bfe d43e
000002a0: cf8a 1040 e112 a33d 9b44 46bd c3e3 893f
000002b0: 47df f5bc 7cac 183f 991d b03f 383a ba3f
000002c0: afbc 583c 39d6 6eba 0b1f 2cbf 60c7 efbe
000002d0: 5c96 843e 0e24 8fbf 5686 8e3f 65cd 30bf
000002e0: 5166 913e cfac 493f 1d5f 5fbf a339 7e3f
000002f0: 4419 053e b288 ba3f 24a2 b0be cfaa 613e
00000300: ffff 4b3f c2a3 29bf 3f6a a53f dbe9 153f
00000310: 58da f83d e002 1c3f 94e5 553f 51b2 163f
00000320: 80ed 073f a380 8a3e c34c 4c3d 703e b73f
00000330: bf9f f33e ac0b cb3e 46ec da3d 3cc4 403f
00000340: 9109 963f bc7f 36bf 90f2 663f 41d9 843f
00000350: 8e99 7d3f 5867 753d 53fa ee3e cedf 263f
00000360: b1de 5abe 062f 22bf 0afa 4dbd 708e dab8
00000370: a8d6 c23e 97cf 6dbf 45e6 503d 6c8f 4cbf
00000380: 0bbd ae3e f6f5 943e 6537 abbe 1af3 6b3f
00000390: a578 36bf e209 d43e 4c0e ce3d c0e5 863f
000003a0: 1ee9 333f f817 0d3f c90c 863f 92b6 0bbf
000003b0: 45a5 0abf b06b 8d3f 9fa9 28bf e6bc 4b3f
000003c0: 32fd 2bbe bb9c 6abf 4f19 5ebf 4be7 c13e
000003d0: 1d19 4dbf 3fe3 823f cbc0 343f 4cc7 e93e
000003e0: cd6f 4b3f 995d 8f3f 3ee3 833f 2d04 e63d
000003f0: 2f05 1d3f 6dbc 92bd ba93 af3f 0e44 403f

l1.bias f4 [8]
0.75916255 1.5822959 0.9039961 0.8445556 1.2449911 1.3532231 0.65363246 0.94255996
00000000: 7a58 423f ac88 ca3f 4a6c 673f cc34 583f
00000010: de5b 9f3f 6a36 ad3f 7554 273f 9c4b 713f

l2.weight f4 [8, 8]
2.2836158 1.554747 2.995185 0.36062586 0.28626424 -1.1742885 -1.5465598 0.008600311
-0.37363693 2.2457314 -1.6873531 2.4896207 1.1961663 -1.7594838 0.11994189 0.94523174
-0.15249446 0.117197536 -0.42267743 -0.20717566 0.089044 -0.37920874 0.019517086 -0.35240915
3.4422185 -0.73007363 1.5679033 2.217619 0.4993762 0.536963 3.038531 -0.26813084
0.07696745 -0.27081063 0.2964856 0.7122029 1.4874866 -0.5302209 0.4093762 2.9614084
-2.2801337 1.021821 1.825858 1.8613596 1.963034 1.7333101 -0.66212344 -1.5649253
0.35094762 1.343594 -1.1365651 0.45427683 0.12001354 2.3950846 -2.2245615 0.4468769
-0.119122535 1.7466383 -0.98250085 -2.4699717 2.1385999 0.5422027 1.0980779 1.2820429
00000000: c326 1240 f301 c73f 1cb1 3f40 f4a3 b83e
00000010: 3a91 923e 164f 96bf acf5 c5bf 52e8 0c3c
00000020: 574d bfbe 10ba 0f40 30fb d7bf f255 1f40
00000030: fa1b 993f c436 e1bf 18a4 f53d b5fa 713f
00000040: 8227 1cbe 4305 f03d 2d69 d8be db25 54be
00000050: b35c b63d a627 c2be 4ce2 9f3c f96e b4be
00000060: 4f4d 5c40 1be6 3abf 0eb1 c83f 78ed 0d40
00000070: 3dae ff3e 6876 093f 4b77 4240 7248 89be
00000080: 1ca1 9d3d b1a7 8abe f6cc 973e ee52 363f
00000090: f665 be3f 8fbc 07bf c299 d13e b787 3d40
000000a0: b6ed 11c0 08cb 823f b7b5 e93f 0841 ee3f
000000b0: b344 fb3f 1bdd dd3f ec80 29bf 794f c8bf
000000c0: 68af b33e e3fa ab3f f77a 91bf f996 e83e
000000d0: a9c9 f53d 1149 1940 375f 0ec0 0dcd e43e
000000e0: 84f6 f3bd d891 df3f 2d85 7bbf 0414 1ec0
000000f0: d2de 0840 cccd 0a3f d18d 8c3f fb19 a43f

l2.bias f4 [8]
0.21816538 0.22570984 -0.41349712 -0.31620896 -0.66030157 0.09207764 0.9429839 1.6570604
00000000: bf66 5f3e 7b20 673e e5b5 d3be 24e6 a1be
00000010: 8609 29bf 3493 bc3d 6567 713f 8e1a d43f

l3.weight f4 [41, 8]
1.1861817 -1.1054665 -0.36875987 0.5040817 -1.7263821 -2.4035919 -1.8102902 -1.1915158
0.8943243 -1.9808011 -0.0638674 -0.09762477 -2.6934137 -0.6382594 0.16857167 -0.113758504
0.7241429 -0.44234517 -0.13815676 -0.3529673 -0.88571006 -3.736812 0.04376151 0.31421092
0.37431264 -1.4329828 0.09454734 0.121640384 0.18102008 -2.452946 -2.5609708 0.56047505
-0.9859126 0.4359715 -0.379276 -0.07811825 0.7312662 -1.9703163 -0.61260724 -0.46336794
-0.031407382 -2.5068696 -0.108448714 0.51019704 -0.71441174 0.14182733 -0.070700556 -3.3182027
-2.8808124 -2.8487928 0.124097556 -1.2369877 0.15475209 -1.9220057 1.2651538 1.0473222
0.2264269 0.25572962 0.02885064 -0.33309942 0.63687354 -0.6104258 -3.324466 -0.64218765
-0.5069403 -0.27528512 -0.30956268 0.47084075 -0.54890835 -0.8101139 -0.4165134 -1.2289052
0.4137208 0.8647723 -0.10556511 -2.2775016 -1.3716537 -0.22506703 -0.27167362 -0.02085424
-0.48166955 0.4055477 0.14304146 -0.3358603 -0.8352634 -0.4488744 0.35942522 -0.3743982
0.19393669 -0.60814893 -0.4088391 -0.8873308 0.24452864 -0.7013565 -0.2949404 0.46297228
-0.123467125 0.18148386 -0.003356273 0.18626738 0.63053125 -1.8757775 -1.9203871 -2.533616
0.07282882 -0.6466206 0.11288933 -0.61190146 -0.8786301 0.6350907 0.74986535 -2.6512144
-0.37890834 0.1013621 0.15214331 -2.8426106 -1.1367412 0.21225663 -0.08653251 0.89946353
0.8402098 0.09566785 -0.38369787 -0.24856971 -1.0088726 0.07207117 -1.7028879 -1.0724058
0.10811279 -1.7964735 0.24743423 0.693119 0.5080147 -2.7262964 -1.8129165 -1.5423949
-1.0103418 -3.709152 0.06155078 0.61708647 -0.01199982 -0.18788601 -0.68578404 -0.46489415
-2.9949174 0.22875887 -0.37295437 -0.08656454 -0.3119187 0.5018934 -0.0089940075 -1.0999982
-0.3622984 0.6170214 -0.04675136 -0.6086124 0.3421228 -2.7661927 -2.551101 0.64403945
-1.5278196 0.71264637 0.2470355 -0.9484461 -0.639088 -3.0563595 0.325221 1.136193
-3.5287848 0.23327358 -0.012866205 -0.14129832 0.3755231 -1.0315653 -1.830616 0.7570982
-0.83415824 -2.4694786 -0.17782828 0.10501305 -0.73635334 1.1076239 -0.43321115 -1.0244534
-0.9430962 0.7394769 0.22717364 -1.7388451 0.83571345 -0.2420517 0.17770322 -0.4752882
-3.3232162 -1.942298 0.26864055 0.5057025 -3.0080016 0.18344271 0.67639524 0.15434189
0.17262526 -1.456457 -0.07178467 -0.270977 0.32049304 -0.12874879 0.6234891 -1.0417356
-2.0633857 -3.0130064 0.054558244 -0.5973308 -0.5853232 0.51523405 0.81681955 0.19527528
-0.0609135 -0.58444464 -0.1671854 0.005755174 0.8363614 0.28198367 -0.69478256 -3.4527366
-2.6077278 -0.08762306 -0.08756137 -2.2862275 -0.17852014 -0.00086920994 0.69510865 0.5207572
-3.0407968 -1.8659818 0.19364268 -2.9585047 -3.2072318 0.64685094 1.1996268 0.9397262
-2.6456194 -0.11113478 -0.25970352 -1.2590528 0.09317383 0.31861803 -0.011343326 0.67130536
-0.60846275 -1.0424275 -0.022741761 0.022470528 0.4332211 -0.057683554 -1.2626874 0.18612145
00000000: cdd4 973f ed7f 8dbf 18ce bcbe 800b 013f
00000010: 17fa dcbf 73d4 19c0 97b7 e7bf 9783 98bf
00000020: 70f2 643f e48a fdbf e9cc 82bd 7fef c7bd
00000030: e460 2cc0 f864 23bf 0d9e 2c3e 38fa e8bd
00000040: 6e61 393f 117b e2be f778 0dbe 21b8 b4be
00000050: e5bd 62bf ee27 6fc0 453f 333d 41e0 a03e
00000060: e8a5 bf3e fb6b b7bf 09a2 c13d 981e f93d
00000070: 545d 393e 11fd 1cc0 f2e6 23c0 4b7b 0f3f
00000080: c564 7cbf a837 df3e 7730 c2be 76fc 9fbd
00000090: 4334 3b3f 5333 fcbf d4d3 1cbf 903e edbe
000000a0: 07a5 00bd 8d70 20c0 5c1a debd 469c 023f
000000b0: b0e3 36bf 2f3b 113e 74cb 90bd 6f5d 54c0
000000c0: 3b5f 38c0 9f52 36c0 dc26 fe3d 9d55 9ebf
000000d0: 5577 1e3e 4804 f6bf 8ff0 a13f a70e 863f
000000e0: 74dc 673e feee 823e 2d58 ec3c 028c aabe
000000f0: 250a 233f dd44 1cbf 0dc4 54c0 6966 24bf
00000100: d7c6 01bf 2cf2 8cbe 007f 9ebe 0a12 f13e
00000110: 4285 0cbf a063 4fbf 3f41 d5be c44c 9dbf
00000120: 36d3 d33e b861 5d3f 8532 d8bd 96c2 11c0
00000130: 5992 afbf f977 66be ce18 8bbe 83d6 aabc
00000140: 649d f6be f3a3 cf3e 7679 123e e2f5 abbe
00000150: d2d3 55bf ded2 e5be 9506 b83e 1fb1 bfbe
00000160: 5797 463e a6af 1bbf 5c53 d1be 1c28 63bf
00000170: b765 7a3e 198c 33bf 6e02 97be b40a ed3e
00000180: 55dc fcbd e8d6 393e ebf4 5bbb e0bc 3e3e
00000190: 7f6a 213f 7a19 f0bf 3fcf f5bf c426 22c0
000001a0: 4727 953d ed88 25bf 8532 e73d 93a5 1cbf
000001b0: e7ed 60bf 4e95 223f 2df7 3f3f 7fad 29c0
000001c0: 4600 c2be ef96 cf3d 75cb 1b3e 55ed 35c0
000001d0: bc80 91bf cd59 593e f537 b1bd 3e43 663f
000001e0: fd17 573f 81ed c33d 0c74 c4be 0f89 7ebe
000001f0: bd22 81bf 0d9a 933d 3bf8 d9bf 9844 89bf
00000200: 3d6a dd3d d8f2 e5bf 665f 7d3e 3f70 313f
00000210: 400d 023f a47b 2ec0 a60d e8bf 326d c5bf
00000220: e152 81bf bf62 6dc0 ac1c 7c3d 61f9 1d3f
00000230: e59a 44bc 3165 40be 8b8f 2fbf 9b06 eebe
00000240: baac 3fc0 c43f 6a3e e0f3 bebe c048 b1bd
00000250: cfb3 9fbe 167c 003f 9a5b 13bc becc 8cbf
00000260: 2d7f b9be 1df5 1d3f 5b7e 3fbd 06ce 1bbf
00000270: b82a af3e 4d09 31c0 3d45 23c0 c5df 243f
00000280: 988f c3bf fe6f 363f e0f6 7c3e 5dcd 72bf
00000290: 459b 23bf 659b 43c0 5e83 a63e c66e 913f
000002a0: 9cd7 61c0 45df 6e3e c6cc 52bc 82b0 10be
000002b0: 9044 c03e 550a 84bf a051 eabf 30d1 413f
000002c0: 658b 55bf f00b 1ec0 9e18 36be 1511 d73d
000002d0: a781 3cbf 9fc6 8d3f dacd ddbe 4a21 83bf
000002e0: c16e 71bf 5c4e 3d3f 35a0 683e 7a92 debf
000002f0: 51f1 553f 67dc 77be d5f7 353e fa58 f3be
00000300: 93af 54c0 399d f8bf 418b 893e b875 013f
00000310: 1983 40c0 68d8 3b3e 3d28 2d3f cd0b 1e3e
00000320: adc4 303e 2f6d babf d703 93bd 7fbd 8abe
00000330: aa17 a43e b9d6 03be fb9c 1f3f 9857 85bf
00000340: 830e 04c0 19d5 40c0 7778 5f3d acea 18bf
00000350: bed7 15bf 61e6 033f 161b 513f 3ef6 473e
00000360: 6f80 79bd 2a9e 15bf a632 2bbe e695 bc3b
00000370: c81b 563f 2a60 903e 45dd 31bf a3f9 5cc0
00000380: 03e5 26c0 b873 b3bd 6053 b3bd 8d51 12c0
00000390: fccd 36be b1db 63ba a4f2 313f 5850 053f
000003a0: 6a9c 42c0 7ed8 eebf 444a 463e 2458 3dc0
000003b0: 4943 4dc0 0698 253f 5f8d 993f e591 703f
000003c0: d451 29c0 a29a e3bd dcf7 84be a428 a1bf
000003d0: ecd1 be3d e721 a33e 5cd9 39bc abda 2b3f
000003e0: 37c4 1bbf 446e 85bf ee4c babc 1d14 b83c
000003f0: 28cf dd3e 9745 6cbd be9f a1bf 9f96 3e3e

l3.bias f4 [41]
0.5244963 0.21659307 0.22049762 0.19043724 0.2618765 -0.42824504 1.0798917 0.01645253
0.15123904 -0.329071 -0.057114094 -0.120396465 -0.6399444 -0.14157668 0.5221753 -0.5332911
-0.13712706 0.47303706 0.22070289 -0.04408423 0.69790065 -0.33447334 0.012349369 -0.382783
0.42083713 -0.23211344 -0.27210987 0.10670091 -0.07456845 0.5203001 -0.37495965 -0.011227885
-0.24525888 0.15521683 -0.32481617 0.24562274 0.14190216 -0.4588201 -0.7917384 -0.3902985
0.12059415
00000000: 6445 063f 93ca 5d3e 21ca 613e fb01 433e
00000010: ad14 863e ef42 dbbe e439 8a3f 75c7 863c
00000020: 68de 1a3e fe7b a8be 78f0 69bd 6c92 f6bd
00000030: 65d3 23bf 7af9 10be 48ad 053f c485 08bf
00000040: 096b 0cbe ea31 f23e f0ff 613e aa91 34bd
00000050: 9ea9 323f 1740 abbe 0255 4a3c 22fc c3be
00000060: f777 d73e 25af 6dbe fc51 8bbe 0286 da3d
00000070: 58b7 98bd 6332 053f b6fa bfbe 2af5 37bc
00000080: 2525 7bbe 29f1 1e3e 4e4e a6be 8784 7b3e
00000090: cd4e 113e 78ea eabe 5eaf 4abf 34d5 c7be
000000a0: 11fa f63d
